model.tflite (tflite, 153840 bytes, 8 tensors)

sequential/conv2d/BiasAdd/ReadVariableOp f4 [8]
00000000: 6c66 e8bd cd7f 73be c4e4 e8bd 3803 ddbc
00000010: a32d 32be e0a1 e8bd 451b 5e3e 8fbb 96bd
-0.113476604 -0.23779221 -0.113717586 -0.026979074 -0.17400222 -0.11359 0.2169009 -0.07359993

sequential/conv2d_1/BiasAdd/ReadVariableOp f4 [16]
00000000: de1c e5bc 07d5 4b3d b396 babd 13d0 2bbe
00000010: 7c1c ab3d 30f1 c63c a432 913d f146 d9bd
00000020: f2e2 dbbd 9dba 46bd 7fe6 d3bd ac7c a8bc
00000030: f17b a2bd ea41 b03d 8b90 86bd cb55 24be
-0.027967867 0.049763706 -0.09110775 -0.16778593 0.08355042 0.024284929 0.07089737 -0.10609234
-0.10736646 -0.048517812 -0.10346698 -0.02056726 -0.07933796 0.08606322 -0.06570538 -0.16048352

sequential/conv2d/Conv2D f4 [8, 5, 5, 1]
00000000: c8a4 ed3c 0bfc b23d 30b7 efbe 1715 42bf
00000010: 8aa7 a4be c9d5 03be 10d8 ec3e edeb 263f
00000020: e7b0 7dbe 20c8 e3be 00bc 69be 1776 873e
00000030: 1816 d13e 4827 f0bc a9ec 683d d77d e6be
00000040: 611b 043e 21f0 663e 6819 e03e b8c5 a03e
00000050: ace2 ec3d d6fd 363e da0b 45bd 08ef b3bd
00000060: 24de 38be da63 8bbd c804 a0be 17a2 193e
00000070: a9d1 203e 88a3 2e3e a996 cabe 7664 693e
00000080: aaaa 663e dab6 d93b f439 c6be cbaf 033d
00000090: 1c22 d03e 4ffe 053e 3c8b 1e3e 0dcb 6ebe
000000a0: 19cf 7d3e dbdd 9dbd f04a 4e3d d650 7f3e
000000b0: 8307 813d 0005 043e 46e3 0cbf 8ed0 a6be
000000c0: 4637 9c3e 6a79 8f3e 41ae dabc 4afb 813e
000000d0: 63c9 b5bd 3389 eabd 6d69 34bd 9198 b53d
000000e0: 2d44 a83e 9786 3fbd ad2d 24be dcbb dbbe
000000f0: 9c0e d43d 6340 fc3e a23c 95bd f56c 823d
00000100: b174 32bf 0214 ccbd a895 803e bdf2 9e3e
00000110: 6bb6 07bc 8930 33be ba42 013e 04d2 c33d
00000120: 19e5 53bd dd51 6cbd fc2c 683d 8ef1 dc3d
00000130: d304 f73d ae98 7abe 33be bfbe 08d4 afbb
00000140: 4d1a 64be a9ca 33be 545f 33be 6a09 6fbe
00000150: b293 05bf c727 92be 2cfa febd ed13 7f3e
00000160: a910 43be 708a 463e 3ba5 ae3e fb41 0d3d
00000170: fdc8 923e 9e62 853e bda0 8e3e 621a 9abe
00000180: 4281 80bd be55 933c fd2e e83e 18f4 653e
00000190: a4dc bbbe 3205 6bbe 824e fd3d dd05 e83e
000001a0: 8870 673e 6bb1 7bbe 20f3 3a3e 8ecf 863e
000001b0: 570a 7f3e 184d 9cbe 08dc adbe 58d2 ce3d
000001c0: 2d9b 073f c5c9 873e 8761 fdbe e332 bb3e
000001d0: 1db2 4fbe ff0c da3e e11d debe 8a02 47be
000001e0: e9f0 a2bd 10ca 4c3d e2c3 0f3e c53f cdbe
000001f0: cf7a 0dbd 87cf 5dbe a2d1 913e 8567 e23e
00000200: dd36 c53e 6869 473e 3d32 ccbe 4b27 40be
00000210: e151 96be 223b 093f 1c48 953e e556 27be
00000220: 9007 89bd 5526 27bf a1c1 20be e2b5 bf3e
00000230: 6033 64be 5570 4bbf 1bad a5be 7d6e cfbd
00000240: a5a9 fd3e c9da d43e 92f4 aa3e 6322 49be
00000250: 1195 5dbe 59ae 923d 8114 0f3f f01d 6d3e
00000260: ceab 963e db2f 623e a103 eb3e 3156 37be
00000270: 496f d63d f786 e33e 99a8 813e 4fc8 e1bd
00000280: 9dff 7fbc b41a 21be f7c1 efbe 333c 80be
00000290: 2ed0 c03d d294 fdbe c3ff 8ebe 909c 98be
000002a0: 5a24 08bf 8cd1 83be d3c2 b3be 4951 c1be
000002b0: f9a5 96be 0684 21be 6118 953e e1de 2dbe
000002c0: 8f9d 863e 40fb d8bd e916 e5bd 1596 7f3d
000002d0: c6f8 7cbd e293 60bc 1907 d8bd 1de4 66bd
000002e0: af3a c1be e24a dabd 29f3 a23e adf8 d0be
000002f0: 581e cbbe 7e17 0fbe 74d3 8c3d 64ea acbd
00000300: 990b 3bbe 8302 46be 8e44 e5bd 95fb 053e
00000310: 3001 083f 1ab2 ea3e b024 ca3e 72aa e83e
0.029009238 0.0873948 -0.46819448 -0.7581343 -0.32159072 -0.12874521 0.46258593 0.65203744
-0.24774514 -0.4448862 -0.22825623 0.26457283 0.4083717 -0.029315606 0.05686632 -0.45017883
0.12901069 0.2255254 0.43769383 0.31400847 0.11566672 0.17870268 -0.048107006 -0.08785826
-0.1805349 -0.068061545 -0.31253648 0.15003239 0.15704979 0.1705457 -0.3956807 0.22792229
0.2252604 0.006644112 -0.3871609 0.03215007 0.40651023 0.13085292 0.15482801 -0.23319645
0.24786033 -0.07708331 0.050364435 0.2493318 0.06300261 0.12892532 -0.5503429 -0.3258099
0.3051092 0.2802232 -0.026694419 0.2538703 -0.08876302 -0.1145195 -0.044045854 0.0886699
0.32864514 -0.046759214 -0.16033049 -0.42916763 0.10354349 0.49267873 -0.072869554 0.06368438
-0.69709307 -0.09964754 0.2511418 0.3104457 -0.008283238 -0.17498983 0.1262311 0.09561542
-0.051732156 -0.05769526 0.056683525 0.107882604 0.12061467 -0.24472305 -0.37449798 -0.0053658523
-0.22275658 -0.17557777 -0.17516834 -0.23343435 -0.5217849 -0.28545973 -0.1245006 0.24909945
-0.19049324 0.19388747 0.34110436 0.034486752 0.28668967 0.260518 0.2785701 -0.30098253
-0.06274654 0.017985221 0.4534835 0.22456396 -0.36691773 -0.229512 0.1236849 0.45316973
0.22601521 -0.24579398 0.18256807 0.26330227 0.24906288 -0.30527568 -0.33956933 0.10098714
0.52971154 0.26521125 -0.4948847 0.3656226 -0.20282789 0.4258804 -0.4338217 -0.19434562
-0.07956106 0.04999739 0.14039567 -0.40087715 -0.034540948 -0.21661197 0.2848025 0.44219604
0.3851842 0.19473803 -0.3988208 -0.18764989 -0.29359344 0.53605855 0.29156578 -0.16341741
-0.066908956 -0.65292865 -0.15698864 0.37443453 -0.22285223 -0.7946828 -0.32358631 -0.10128496
0.4954349 0.4157317 0.33389717 -0.19642024 -0.21638896 0.071621604 0.5589066 0.23155951
0.29427952 0.22088568 0.45901206 -0.17903973 0.10470445 0.44438908 0.25323942 -0.11024534
-0.015624908 -0.15732843 -0.4682767 -0.25045928 0.09414707 -0.49527603 -0.27929506 -0.29806948
-0.5318047 -0.2574581 -0.35109577 -0.37757328 -0.29423502 -0.15773019 0.29120162 -0.16979553
0.26292083 -0.10594797 -0.111860104 0.06239899 -0.061760686 -0.013707133 -0.10548229 -0.05636989
-0.37740085 -0.10658814 0.3182614 -0.40814725 -0.39671588 -0.13973805 0.06876269 -0.08443144
-0.18266143 -0.19336896 -0.111947164 0.13084252 0.5312681 0.45839006 0.39481115 0.4544254

sequential/conv2d_1/Conv2D f4 [16, 5, 5, 8]
00000000: de5f 19bd e58a 0c3d d30b ff3c 5ef8 c43d
00000010: 56c2 82be d640 43bd 9518 70bd e37b 093d
00000020: 3277 f53d b5f9 c03d a3fe 0cbd 086a 093e
00000030: 2152 c8bd 6829 6e3e 518c 55be 48b7 abbd
00000040: 712e 523c 62a3 c43d 07a3 d33c 526d d63d
00000050: 2464 4e3e 2d23 07be b221 58bf c549 56bd
00000060: 062d c7ba 5938 c8bc 8054 cb3d 7001 4a3d
00000070: 0a09 803e f05d 6ebe 6543 80be 6a99 60bb
00000080: 2b73 75bd 84ad c03d 6618 22be e69c e63d
00000090: c66b 803d 8723 a73d 6541 88bd 3866 743d
000000a0: 78a8 cc3b da6b bc3d 9e20 26be 9376 533c
000000b0: 8155 92be 286c bd3e 6980 023e 3a5a 74be
000000c0: 597a 8e3d e4f7 323d 838d dc3d e2b1 c93d
000000d0: 5f5b 143d 60c7 e73d 98be b7be 0ffc bbbe
000000e0: e17a a63d 8dc2 483d ab71 313e bd63 24be
000000f0: 0cdd 403e 1ffe 26be 8595 92be 06eb 1bbe
00000100: 1906 2bbd b5da cfbb c192 993d d351 7d3d
00000110: 6263 343c 3953 1b3d 61a0 d43d 9cb8 17be
00000120: c92f 3fbb 28f8 7cbd c130 a2bc 20e5 d03d
00000130: ba4e 6fbd db5f c9bd 77d8 8b3d 4051 a2bd
00000140: c594 6dbe 14b6 06bd 1aac f83d cabf e23c
00000150: 9a2c 993d db1f a93d 947d 5b3d 52a7 a2be
00000160: 3624 f73c 8d86 af3c 7a8d 353e ea75 5ebd
00000170: 0015 1d3e e719 5b3d 5658 36be bc76 21be
00000180: 9498 08bd b40f 983d 394d 713e 9a89 66be
00000190: b89a 6d3d bea8 07bf b3f0 65be e49a 073e
000001a0: 4b1f 07be ea21 0abe 5203 783d 2fdf 2abe
000001b0: 276e 56be cb8a fc3d 10b6 a13d 3592 413d
000001c0: 93cc 3cbd 708a 68bd 4491 8abd 0a0e 0fbd
000001d0: 697b 733e eb82 3f3e c8c2 cf3d 8908 c5bc
000001e0: 675c 0ebe 3f88 933d dd4a 8e3d 2daf 043d
000001f0: 9676 463e 5602 b2bd ab20 a3be a105 0abe
00000200: 033c b0bb 8f88 363d 7dfb 163e 1a08 80be
00000210: 0c17 4c3d c5c7 50be 8b61 93be 0b44 0b3e
00000220: 1668 da3d 9384 5b3c dd7d 483e 2462 063d
00000230: b04e 5fbd 0972 d9be 0615 a1be e600 3e3e
00000240: 9081 39bd 205f f1bd 4853 be3d da6a bebd
00000250: 4ee0 51be 8ccf 67bd 5731 83be 1e78 a53d
00000260: 5e79 103d 56c8 e0ba 07fc 79bb 1310 ad3c
00000270: 06fe c93c 5001 003e b8bc d4bd c69b 493d
00000280: c171 25bd 01d1 843d cde6 343e 7eff 54be
00000290: 61f8 103e 8570 b5bd 8355 eabd e8e5 91bd
000002a0: c3c7 9c3d 55fd 1d3d e690 e43d f569 50be
000002b0: 97ba 85bb ca8d 88bd 3dda 45bd 459a 6a3d
000002c0: 7f03 b93d 47d3 90bc e592 92bd 0ac9 58bd
000002d0: 1b31 58be 09d7 1dbe ba61 5fbd 9e3f 3b3d
000002e0: b36a e73c c461 0c3e e725 aebd 3435 4d3d
000002f0: e3db dcbd 5040 cd3d 8317 8dbd 2489 8dbd
00000300: 3deb b23d 0db3 c93d fec6 12bd f715 fcbd
00000310: 73ff 0fbe 0fa3 fc3d 2ad2 393d b260 02bd
00000320: 53e8 cc3d 4b20 53bd 1d89 09be 81f2 1d3e
00000330: 9824 a43d 6d51 3f3e 96c0 2fbe 23a5 d6bc
00000340: 156a 8b3d c3cf d53d d305 353c 9edb 4d3e
00000350: d955 2fbe e4c4 5a3e f937 863b 1ef7 153e
00000360: b0c3 c43d 5bd2 e03d 2250 fb3d 3d4d 7b3e
00000370: be12 2cbe 313d febd fc47 f33d 1f1e 303d
00000380: 0270 a13d 595c 67be 6cc3 a83d fed7 633d
00000390: 927f 11be 8867 0a3d 74cd 263d e21f 4cbd
000003a0: 6d8c 51be 61ac c5be c1aa 38bd f6f3 d2be
000003b0: c93e bfbe 6755 7f3c c1fa c13d 6ee6 93be
000003c0: 513b 3b3c d974 943d ebe3 91be 4e92 edbd
000003d0: 2702 223d 2524 c43d 41bb 4ebd 9131 02bd
000003e0: 5043 843d d2d1 e03d e1cc f13d cc04 ea3d
000003f0: 82dd 87bb d391 c03e e78d 13be ee74 a9bd
-0.03744494 0.034312148 0.031133568 0.09617685 -0.25538892 -0.047669254 -0.058617193 0.033565413
0.11985625 0.09422628 -0.034422528 0.13419354 -0.0978129 0.23257983 -0.20854308 -0.083845675
0.012828455 0.09601475 0.025834573 0.1047007 0.20155388 -0.13197012 -0.84426415 -0.052316446
-0.0015195913 -0.024440931 0.099282265 0.049317777 0.25006896 -0.23278022 -0.25051418 -0.003427113
-0.059924286 0.094080955 -0.1582962 0.11260395 0.06270556 0.08161073 -0.06653098 0.059667796
0.006245669 0.092002586 -0.1622338 0.012906688 -0.2858086 0.3699658 0.12744297 -0.23862544
0.0695693 0.04369344 0.10769179 0.098483816 0.03621995 0.11317325 -0.358876 -0.36715743
0.08128906 0.049013663 0.17328517 -0.16053672 0.18834323 -0.16307877 -0.286297 -0.15226373
-0.041753862 -0.0063432106 0.07498694 0.06184561 0.011010023 0.037921164 0.10382152 -0.14816517
-0.002917277 -0.061760098 -0.019798638 0.10199952 -0.05842469 -0.09832736 0.06828397 -0.079256535
-0.23201282 -0.032888487 0.12142201 0.027679343 0.0747921 0.08258029 0.053586558 -0.3176828
0.030168634 0.021426463 0.1772975 -0.05431167 0.15340042 0.0534915 -0.17807135 -0.1576795
-0.033348635 0.0742487 0.23564614 -0.22513428 0.05800888 -0.52991855 -0.224551 0.1324268
-0.13195531 -0.134895 0.06055004 -0.166867 -0.20940457 0.1233116 0.07896054 0.047258575
-0.046093535 -0.05677265 -0.067659885 -0.034925498 0.23777546 0.18702285 0.101445735 -0.024051921
-0.13902436 0.07203721 0.06947873 0.032393623 0.19381174 -0.08691852 -0.3186086 -0.1347871
-0.0053782477 0.044563826 0.14744373 -0.2500618 0.049826667 -0.20388706 -0.28785357 0.13600175
0.10664384 0.013398307 0.19579263 0.032808438 -0.0545184 -0.42469814 -0.31461352 0.1855503
-0.045289576 -0.11785722 0.092932284 -0.09297724 -0.20495722 -0.056594416 -0.2562358 0.08079551
0.035271995 -0.0017149549 -0.0038144605 0.021125829 0.02465726 0.125005 -0.10387558 0.049220823
-0.040391687 0.06485177 0.17666169 -0.20800588 0.14157249 -0.08859352 -0.11442091 -0.07123929
0.07655289 0.038571674 0.1116045 -0.2035292 -0.004081081 -0.06667669 -0.04830383 0.05727603
0.0903387 -0.01767887 -0.07156924 -0.0529261 -0.21112482 -0.1541406 -0.05453656 0.045714967
0.02824912 0.1370917 -0.08503323 0.050099567 -0.107841276 0.10022032 -0.0688925 -0.06910923
0.087362744 0.09848604 -0.035834305 -0.12308877 -0.1406229 0.123357885 0.045366444 -0.031830497
0.1000525 -0.05154447 -0.13431211 0.15424539 0.08014792 0.18683405 -0.1716331 -0.02620179
0.06807343 0.10440018 0.011048752 0.20103309 -0.17122592 0.2136417 0.004096028 0.14645049
0.09607637 0.10977622 0.122711435 0.24541183 -0.16804025 -0.12414015 0.11878964 0.042997476
0.07882692 -0.22593822 0.08240399 0.055625908 -0.1420882 0.03379014 0.04072328 -0.049835093
-0.20463724 -0.38608077 -0.04508472 -0.41201752 -0.3735259 0.015584326 0.09471656 -0.2888674
0.011427716 0.072488494 -0.284942 -0.11600171 0.039552834 0.095772065 -0.050471548 -0.03178555
0.06458151 0.1097752 0.11806656 0.11426696 -0.004146279 0.37611255 -0.144096 -0.08274256

sequential/dense/BiasAdd/ReadVariableOp f4 [128]
00000000: 6eee ffbc 3f61 7dbd 5538 73bd 0a48 8abd
00000010: d7e2 b83c 2cd3 80bc e1db 9abd b9f7 03bd
00000020: ff44 42bd ec83 98bc ab7e 3b3d 04e8 abbd
00000030: ca69 98bd 85bb 34bd ab09 1fbd cbb9 8abd
00000040: b36a 99bd f81e 1dbc 6702 4bbc 8708 673d
00000050: 454d 2fbd 3adc 06bd eb05 64bc f5ee 723c
00000060: a7c6 4abd 732f 14bc 3f44 b5bd d383 9abd
00000070: 7c54 303d c16d 45bd b1f7 2ebd cbaf b9bd
00000080: 2f78 63bc 2157 1d3d 9e1e 0f3d 9e8c 8dbc
00000090: 9d60 963d 6561 afbd ead2 d6bb 3289 04be
000000a0: e939 8fbd b4ee c5bc aa23 163d 3d47 65bd
000000b0: e743 c43d 5167 cc3c 7735 a1bc bb03 7bbd
000000c0: 985e 9fbc dd0e ad3c ebef cd3c 33f8 d0bc
000000d0: ba0e c2bd 87b4 793d 7337 72bd 539f 3fbd
000000e0: e691 3fbc 33fe edbd e851 e73c 7d9d af3d
000000f0: 9ca7 80bc 2275 96bd a123 273d 7c08 a3bb
00000100: 4b15 b7bc 56e9 7cbd 95b8 35bd ef78 a4bd
00000110: 4c5b b63a c328 24bc d3a8 4fbb 6c55 c8bd
00000120: cbf2 99bc e998 1fbe 02b4 a4bc 47cd bdbc
00000130: a3a5 32bd c094 6ebd 9671 d9bc 318f e1bc
00000140: 49ea 80bc 5b65 2c3c 85a8 babd fb7f 90bc
00000150: f21e a3bc f397 f93c 0dec 54bd 8c1e e43c
00000160: 8bb4 7dbc 6a9f 6fbc 506b 1dbd 9a3f a33d
00000170: 2920 94bc 40e8 92b9 a60c 42bd 81c4 6cbd
00000180: 8f11 ac3d ce6a 813c d76c 96bc 1ecc 72bd
00000190: 6614 463d 8e3b 34bc d0dd c2bd b197 04be
000001a0: 48d9 9fbc 1ac7 4ebd e6d2 503d 477b 22bc
000001b0: 7a25 693b 23f6 373d eb4d 693a e03b d53c
000001c0: 5ac2 1a3d 7dd3 2fbd 21cd 323b e85a ecbc
000001d0: 6c65 b23c a8e6 8bbd e9b5 1dbd 6c69 173c
000001e0: 0895 5d3d f911 cc3c 3e2e 683d 9ae6 8bbd
000001f0: 460d d9bc cc7b 813c 9cb0 02be 4949 c5bb
-0.031241622 -0.06186032 -0.059379894 -0.067520216 0.022569103 -0.015725695 -0.0756147 -0.03221867
-0.04742908 -0.018617593 0.045775097 -0.08393863 -0.07442053 -0.044124145 -0.03882758 -0.067737184
-0.074910544 -0.009589903 -0.0123907095 0.056404617 -0.0427983 -0.03292487 -0.013917427 0.01482748
-0.049505856 -0.009044516 -0.088509075 -0.07544675 0.04304932 -0.048200373 -0.042716686 -0.09066733
-0.0138836345 0.03841317 0.03494131 -0.017278966 0.07342646 -0.085634984 -0.0065559046 -0.12942961
-0.06993467 -0.024161674 0.036655106 -0.05597614 0.09583264 0.024951609 -0.019678814 -0.061282855
-0.019454286 0.021125251 0.025138816 -0.025508976 -0.09475465 0.06096318 -0.05913491 -0.046782803
-0.0116925 -0.1162075 0.028237298 0.085749604 -0.015704922 -0.0734656 0.040805463 -0.0049753767
-0.02234902 -0.061745964 -0.044365484 -0.08030879 0.0013912707 -0.010019484 -0.003168632 -0.09781918
-0.01879253 -0.15585674 -0.020105366 -0.023169173 -0.043614995 -0.058247328 -0.02654342 -0.0275341
-0.015736716 0.010522212 -0.09114174 -0.01763915 -0.019912217 0.030467963 -0.051982928 0.027846597
-0.015484939 -0.01462541 -0.03843242 0.079711154 -0.018081741 -0.0002802033 -0.047375344 -0.05780459
0.084017865 0.015797999 -0.018362446 -0.059276693 0.048359297 -0.011000527 -0.095149636 -0.1294849
-0.019512787 -0.050482847 0.05098238 -0.009917087 0.0035575316 0.04491247 0.00088998553 0.026029527
0.037783004 -0.0429263 0.002728291 -0.028851941 0.021776877 -0.068311036 -0.03850356 0.009241443
0.054097205 0.024910914 0.056684725 -0.06831093 -0.026495587 0.015806101 -0.12762684 -0.006020699

sequential/dense_1/BiasAdd/ReadVariableOp f4 [10]
00000000: 04e8 ac3c b889 8fb9 2826 f6bd 9b13 bd3d
00000010: d764 babd b7fe 36bd f906 afbd f415 73bc
00000020: 00e8 3b3e 6632 e53b
0.021106727 -0.00027377694 -0.120189965 0.09232255 -0.09101265 -0.04467651 -0.08546252 -0.014836777
0.1835022 0.0069945334

sequential/dense/MatMul f4 [128, 256]
00000000: 4a26 003f f970 4fbe 03e0 14be 4904 4ebd
00000010: 905a b2be 433d 75bc c2f6 fabc 76f9 c83d
00000020: 90b7 1b3d 808a 513e c78d c43d a843 81be
00000030: 7eb8 f93d 4469 fdbd 6451 d5bc bd3d a33e
00000040: dd22 40bd 86ac cdbe 32dc 63bc 89d6 803e
00000050: 65f6 15be 9092 33be b10c 343e 8a03 953b
00000060: 695e 88be 23e5 84be 90b1 b6bd e4ff 5b3d
00000070: 2e1b 62be e3d7 bc3d 9f54 f03d c350 8cbc
00000080: 2428 06be 8830 2cbe e541 85be 14a5 debd
00000090: fcc8 1f3e c571 cbbc 0dee a23c e400 dd3c
000000a0: 3032 00be 7711 40be 272e 043e 93da 1c3e
000000b0: a2d1 7cbc fc20 173d 57b1 523d d761 d53d
000000c0: 419d c5bd 15c9 e43d fc80 c3bc 4430 a5ba
000000d0: fcbb 563d 01d0 4a3e 20de 913d 19f4 0abe
000000e0: 32e8 013d fb61 a1be 8ddd 4abc aa6a 7b3e
000000f0: f4d7 5ebc 274e 5f3c f30d 7b3d 8ff3 d1bb
00000100: 2759 ed3d 6c91 573d df16 fcbc d99c 483d
00000110: 572e 68be 78c1 0abe 61b9 de3e bb8e 98bd
00000120: 37b7 8d3d ae65 e73d ba4a b23e e534 ac3d
00000130: 8d38 883e 0319 75be d83d d9bd ecc2 c83d
00000140: d4ec 44be eda8 91be b4e9 623b a29b 0d3e
00000150: 6219 2bbe f59d 303c 73ec 423b 0565 eebd
00000160: d3b1 683d 02b4 17be 511c 5c3c 4ab7 cabd
00000170: 95d9 68bd ba08 a63c 092e e63c cfc9 5cbe
00000180: 2224 423d 6488 1cbe 2e25 8bbd 391b 0cbd
00000190: 0a46 52bd fab4 fb3d b061 3a3d 9ec4 863c
000001a0: 63cf 8c3a 84fb 80bd 88f9 b43d b051 0e3e
000001b0: 23d2 cdbd 12d7 50bc bd1c d53d e257 bd3b
000001c0: f426 f63b b903 313d 6a79 553d e5e5 82be
000001d0: c80d 4a3e 848b b03d e436 3c3e a31d c0bd
000001e0: 2a7b 5e3d b9c3 4dbc a577 21be 3fda f23c
000001f0: a310 003c 95f3 3e3d d2fd 18be 6f43 48be
00000200: 9bc4 6bbd 4c30 933d 83de 11be 9ddd 02be
00000210: 720a 22be 837b db3d 5555 95bd fba8 8f3d
00000220: 7762 7cbd ce97 473e 555d f0bd dfbf a13d
00000230: f5cb 2d3e 611f 58be 4f08 883e ad0f e3bc
00000240: 5ff6 2c3c e442 57be a258 6e3e ec00 afbd
00000250: eec5 cebd 188c 3e3c 3846 d3bc e52c e83d
00000260: dfe8 4b3e d657 b13c 641b 093e 0bdf b2bd
00000270: 3878 95bd 366f 5dbe 7f6f b03d da01 7bbc
00000280: e943 1b3e dfac a63d 1a32 303e 5dc0 8bbe
00000290: 2299 813b ca48 903e b220 76be e32e e4bd
000002a0: d82b 823e 7ae6 2b3e c24b 39be 166c 33bc
000002b0: 5283 8dbe 5477 49be 970e 353d 28cd 6abe
000002c0: 5599 adbb abbd 5ebd ab0e a6bd 63e8 213e
000002d0: 7734 f83c 64d9 1d3e 183e 4f3d faa3 393e
000002e0: 87ae 153d 04ab dcbd 4a0c b2bd 643d 903d
000002f0: aa30 81be 03d8 6c3b e2b7 21be a220 62be
00000300: 000a 023e 8697 22bd 169d a4be 2027 8abe
00000310: 5e84 cd3d fd05 e83d 65ca d73c 2ab0 90bd
00000320: aa85 5f3d e77b db3e 4b40 62be e08a f23d
00000330: 4676 313c d271 71be 8429 9cbd 70ad 033e
00000340: 347b 1c3e 93f3 91be 341a 87bc 0d93 25bd
00000350: c255 e83d 1b34 863d d9d1 2e3c c6f3 c43d
00000360: e587 18be 8f8f 083e 6c80 0dbe 0580 65bc
00000370: 56dd 4abd 3e29 04be 0c9f 7ebe 0040 613d
00000380: 5647 b6bb 476a 3abe ea11 d13d 8f16 023e
00000390: 1fea f1bd f139 5d3e b0b3 f23d cc69 2c3e
000003a0: 0be7 333d 577b e63d cfe7 993d c7bf 983d
000003b0: dd0e e23d b46e 2c3d fb63 2bbd 3e66 e53d
000003c0: 111c 0fbd 2c1d 9fbd f93d e2bd 45b2 4c3e
000003d0: b277 0d3d f363 86be 779e 733c ba34 31bd
000003e0: 8a64 f53c 9c29 79bd d6c1 a53c f9f6 55bd
000003f0: 182c b13e e723 de3d 5c4e 143d 44a1 893c
0.50058424 -0.2025794 -0.14538579 -0.050297055 -0.3483472 -0.014968219 -0.030635241 0.09813206
0.038016856 0.2046299 0.095973544 -0.2524693 0.12193392 -0.123735934 -0.026039787 0.3188304
-0.04690825 -0.40170687 -0.013907479 0.25163677 -0.14644773 -0.17536378 0.17582966 0.004547541
-0.2663453 -0.25956067 -0.08920586 0.053710833 -0.2208068 0.092208646 0.1173489 -0.017128354
-0.1310125 -0.16815388 -0.26026836 -0.1087133 0.15604013 -0.024834523 0.019888902 0.026977964
-0.12519145 -0.18756662 0.1290823 0.15317754 -0.01543084 0.03689669 0.051438656 0.10419052
-0.096491344 0.11171166 -0.023865215 -0.0012602885 0.05242537 0.1980591 0.07122445 -0.13569678
0.03171558 -0.31520066 -0.012381923 0.24552408 -0.013601292 0.013629473 0.0612926 -0.0064072083
0.1158927 0.05262892 -0.030772625 0.048977707 -0.22673927 -0.13550365 0.43500808 -0.07449099
0.06919711 0.11298691 0.34822637 0.08408526 0.26605645 -0.23935322 -0.10607499 0.098028034
-0.19230968 -0.28449193 0.0034624161 0.138289 -0.16708902 0.010779847 0.0029742985 -0.11640362
0.05681021 -0.14814761 0.0134344855 -0.09898241 -0.056848127 0.020267833 0.028098123 -0.21561359
0.04739774 -0.15286404 -0.06794201 -0.03420565 -0.051336326 0.12290378 0.04550332 0.016451176
0.0010742958 -0.06297973 0.08836657 0.13898349 -0.10049846 -0.012746589 0.10405872 0.0057782987
0.007511968 0.04321644 0.052117743 -0.2556602 0.1973182 0.086203605 0.18380314 -0.09380653
0.054316677 -0.012558871 -0.15768297 0.029645083 0.0078164665 0.046619017 -0.14940575 -0.19556974
-0.057560544 0.07186946 -0.14245038 -0.12779851 -0.15824297 0.10716917 -0.072916664 0.07014652
-0.06161734 0.19491503 -0.11736552 0.07897925 0.16972335 -0.2110572 0.2656884 -0.027717436
0.010556786 -0.2102161 0.23275998 -0.08545098 -0.10096346 0.011630081 -0.025790319 0.11336688
0.19913052 0.021648329 0.13389355 -0.08733948 -0.072983205 -0.21624455 0.08615016 -0.015320266
0.15162624 0.08138441 0.17206612 -0.272952 0.0039550224 0.28180534 -0.2403591 -0.111417554
0.25424075 0.16787139 -0.18095306 -0.010951063 -0.27639252 -0.19674426 0.044203367 -0.22929823
-0.0052978196 -0.0543801 -0.081082664 0.15811305 0.030298455 0.15414959 0.050596327 0.18128958
0.036543395 -0.10774806 -0.0869375 0.07042959 -0.2523244 0.0036139495 -0.15792802 -0.22082761
0.12699127 -0.039695285 -0.32151097 -0.26982975 0.10035013 0.11329267 0.026341626 -0.07064851
0.05457083 0.42867967 -0.22094838 0.118428946 0.010831421 -0.23578575 -0.07625106 0.1285913
0.15281373 -0.28506145 -0.016491987 -0.04042344 0.11344482 0.06552907 0.010670149 0.096168086
-0.1489559 0.13336013 -0.1381852 -0.014007573 -0.04952749 -0.12906358 -0.24865359 0.054992676
-0.005562703 -0.18204604 0.10208495 0.12703918 -0.11812233 0.21604134 0.11850679 0.16837233
0.04392151 0.11253994 0.07514917 0.074584536 0.11037991 0.042097762 -0.041843396 0.11201142
-0.034938876 -0.07769236 -0.110469766 0.1998988 0.03453798 -0.2624813 0.014869324 -0.043263175
0.029955167 -0.060830697 0.02023403 -0.052237485 0.34603953 0.108466916 0.03620754 0.01680053

sequential/dense_1/MatMul f4 [10, 128]
00000000: f616 1b3d 1b38 a93e 461b 58be a6c8 e2bd
00000010: 8d24 ea3b 1bf2 363e 18e9 1d3c 4bdd 0dbe
00000020: 7f29 fb3d 2e01 0c3d 8295 39be 97a5 10be
00000030: 0f64 70be 29be 5bbc 152b 82be 5180 83be
00000040: a6de 613e 8260 e13d 01cd 2d3e ae0f 37be
00000050: 633c a13d 8cb1 e43c fa89 5a3e 898c 6a3e
00000060: 3bc6 59be c37a 283d 1dc8 08be 6ac0 70be
00000070: 2be9 dfbd dccc 313e 53e2 23be 1b85 18be
00000080: 998b d0bd 678e 923c be53 a13d acac bbbe
00000090: 63fb 47be d2be 4fbe 517e 823e e120 80bd
000000a0: 0889 b8bd 03e6 46be 643f 7cbe a74e f4be
000000b0: ab8e 063d 306b 233d a417 2b3d c8fd d5be
000000c0: 2918 aebe b35e 97be 5896 f7bc 57c1 80be
000000d0: 8ac3 47be c572 8c3e dea3 acbe cd6f 963e
000000e0: 6699 4e3c b09d bbbd 53eb 213e eba1 0a3e
000000f0: 3c0e d8bd 9d59 2e3c affd 513e 254f b1be
00000100: 1fd2 22bc ec98 47be c2fb acbe 020f 2bbe
00000110: 551d 86bd a3fe 2bbe f715 a7be fda9 b23c
00000120: 0bf7 8cbd 3a2e 34be 996e 0abe e00d 02be
00000130: 9141 2dbe 33df 383e 6157 36be e6df 173e
00000140: 4fe5 713d 820a 333d 5d4d e4be 982a 5dbe
00000150: 0c00 bd3d 35d8 05bf f4c8 12bd 2100 99be
00000160: 9e0a 9cbe 79af 26be bbc4 973e 5375 923e
00000170: 2587 723d 6eb7 45be 2311 b53d 76b7 84be
00000180: e31b d13d 7bd3 12bf f36b 573d 32f1 ebbd
00000190: c684 c0be fe54 af3d 8833 1cbe b461 37be
000001a0: a4a3 53bb bcb8 3a3e d74b e23d 7350 60be
000001b0: 9bbb 80be 7b78 fabe 2304 5cbe 3fad 95be
000001c0: 8d06 a3be 9ff7 a0be 4e5b c53d b048 8fbe
000001d0: 0291 113e b88b 6bbd 9fa9 6dbd d389 be3d
000001e0: d25f 833d e9d1 3f3e 0f6e 283e c538 a2be
000001f0: 59c8 063d 9023 3cbe a6f3 253e 27de a9be
00000200: 9f75 93be e17f 28bb 0ea1 683e 8510 89bd
00000210: 6385 853d 188c a4be b096 2d3e f037 b0be
00000220: 96a3 e6bd 177d c43c df30 31be c3ec d6bd
00000230: 2a86 acbe d216 e53d 827c d0be 3517 a4be
00000240: b495 03bf 2782 b2be c0de 67be b599 aebd
00000250: 3554 5abe 8cb7 14bd c7e6 b6be cd0e f43d
00000260: 43b7 3a3e eb96 c7be b02b bbbe 4a6f 933d
00000270: f0e2 473a d140 1e3e ff2e a2be 631e 70be
00000280: 9d8a 58be c98d 813d 0130 c5be e65e 553d
00000290: b585 a63d 001a 6bbe f224 1f3e 038a 11be
000002a0: 7534 2abc 1d08 553e f05c 3b3d 132c 13bd
000002b0: 45d6 383e fed4 083e 7efd 19be eeac ccbd
000002c0: f7b0 5cbd e98e 563c 162f 04bd eae5 18bf
000002d0: 559b 363e 81e3 393e 1b74 fa3d ed91 d43d
000002e0: 564a 9ebe 6bfd f03d 1258 0a3e b604 313e
000002f0: 7271 893e 18d2 81be 3764 13be e5df 0cbe
00000300: 7b7c bbbe 7086 353c 3d39 893d aa51 1e3e
00000310: 8d5a 5b3d 8c6b 58bc 8634 02bf 64df 63be
00000320: 57f6 f63b 5184 3d3e 45a6 393d 237a fdbe
00000330: 89b3 e7be 6e4e 09be 8ca8 92be 5125 11bf
00000340: aba6 2a3e c664 5dbd 0c35 75be 0c74 34be
00000350: 15a7 0b3e 3c79 2e3e 3088 d0bc 2a58 d8bd
00000360: a110 bb3d 998e 6e3e 3907 bf3d c7bc a63d
00000370: 8577 2cbf 2a1d 4bbe 086c 85be ce16 373d
00000380: 6e23 f1bd 081e e4bc 6bf5 37be 31ca 593e
00000390: 8b54 e53d 1fce 8cbe 2ab4 b3bc 4df4 15bd
000003a0: d281 7cbe 415b 973d ae3a 4cbe 85a6 b03d
000003b0: f44c ebbb 429d 923d b1c9 ed3d b94b e43c
000003c0: 7f3f 363d 150e d23d bf6e 10be 1db9 d43d
000003d0: 6f1f eabe d977 863e 7c98 01bc f0c1 c7be
000003e0: be82 823d 0ee2 d53d b13a f73d baca 05be
000003f0: 01ee 95bd 9e79 3dbc 031e 19be 36c4 193e
0.037863694 0.33050618 -0.21104154 -0.11073427 0.0071454705 0.17865793 0.009638093 -0.13853948
0.12263774 0.034180813 -0.18123439 -0.14125668 -0.2347567 -0.013412037 -0.25423494 -0.25683835
0.2205759 0.110047355 0.16972734 -0.17877075 0.07872846 0.027916692 0.21341696 0.22905172
-0.21267025 0.0411327 -0.13357587 -0.235109 -0.10933145 0.17363304 -0.16004305 -0.14894526
-0.10182876 0.017890168 0.07877301 -0.36655176 -0.1952949 -0.20287636 0.25486997 -0.06256271
-0.09010512 -0.1942368 -0.24633557 -0.47716257 0.032850903 0.039897144 0.041770592 -0.41795182
-0.34002808 -0.29564437 -0.030223057 -0.25147507 -0.19508186 0.27431312 -0.3371877 0.29382172
0.012609815 -0.09160936 0.15812425 0.1353833 -0.1054959 0.010641483 0.20506929 -0.34630695
-0.009937792 -0.19491929 -0.33785826 -0.16704944 -0.065485634 -0.16796355 -0.32633945 0.021809572
-0.06883057 -0.17595759 -0.13518752 -0.12700605 -0.16919543 0.18053894 -0.1780677 0.14831504
0.059056576 0.043711193 -0.44590273 -0.2159828 0.092285246 -0.5228303 -0.035836175 -0.2988291
-0.3047685 -0.16277875 0.2964228 0.28605136 0.059210915 -0.19308254 0.08841159 -0.2592122
0.10210397 -0.57353944 0.052593183 -0.11520614 -0.37601298 0.08561133 -0.15254033 -0.17908365
-0.0032293582 0.18234533 0.110496216 -0.21905689 -0.25143132 -0.48920044 -0.21485953 -0.2923374
-0.31840935 -0.3143892 0.096365556 -0.27985144 0.14215472 -0.057506293 -0.05802309 0.09303632
0.06414761 0.18732418 0.16448234 -0.31683937 0.03290591 -0.18372941 0.16206226 -0.331773
-0.28800675 -0.0025710987 0.22717687 -0.06692604 0.06519582 -0.32138133 0.16952014 -0.34417677
-0.1126167 0.023985429 -0.17303799 -0.104943775 -0.3369611 0.11185993 -0.40719992 -0.32048956
-0.51400304 -0.34864923 -0.22643566 -0.08525411 -0.21321185 -0.036307856 -0.35722944 0.119168855
0.18233971 -0.3898233 -0.36556768 0.07198961 0.0007625064 0.15454413 -0.3167648 -0.23449092
-0.21146627 0.063258715 -0.38513187 0.052092455 0.08130971 -0.22959137 0.15541437 -0.14212804
-0.010388483 0.20803876 0.04574293 -0.035930704 0.18050487 0.133625 -0.15038106 -0.09993921
-0.053879704 0.013095596 -0.032271467 -0.5972582 0.17832692 0.18153192 0.122291766 0.10379396
-0.3091609 0.11767086 0.13510159 0.17286953 0.26844364 -0.253556 -0.14393698 -0.13757284
-0.3661841 0.011079416 0.067003705 0.1546084 0.053553153 -0.013209235 -0.50861394 -0.22253186
0.00753669 0.18507506 0.045324583 -0.49507245 -0.45254162 -0.13408825 -0.28644216 -0.56697565
0.16665141 -0.054051183 -0.23946017 -0.17622393 0.13637955 0.17038435 -0.025455564 -0.10563691
0.09134031 0.23296584 0.093275495 0.08141475 -0.6736987 -0.19835344 -0.26058984 0.044699483
-0.11774336 -0.027846351 -0.17964713 0.21268536 0.11197766 -0.27501008 -0.021936495 -0.036609937
-0.24658898 0.07390452 -0.1994426 0.08625511 -0.0071808044 0.07158901 0.11610735 0.027868139
0.04449415 0.10256592 -0.14104746 0.1038687 -0.45727107 0.26263312 -0.00790989 -0.3901515
0.06372593 0.10443507 0.12071741 -0.13065615 -0.07320786 -0.01156464 -0.14952855 0.15016255
