model.tflite (tflite, 153840 bytes, 8 tensors)

sequential/conv2d/BiasAdd/ReadVariableOp f4 [8]
00000000: fc1d 15bc 2497 05bc 1dc6 babe 8375 bdbc
00000010: a246 debd 94c3 9b3d 41a9 93bd 08ce 90bd
-0.009101387 -0.0081537105 -0.36479273 -0.023127323 -0.10853316 0.07605663 -0.07210017 -0.07070547

sequential/conv2d_1/BiasAdd/ReadVariableOp f4 [16]
00000000: ee8b c2bb e6c8 0abe 923f a6bd bfe6 0cbe
00000010: ab8a 263b 0b38 2a3e 928f 3fbb 14f3 aebd
00000020: b584 4bbd e359 e5bc a25e edbd 825b 1b3d
00000030: 19c3 cebd b0b7 d9bc 073f d63c 7823 5cbd
-0.005937091 -0.13553199 -0.08117594 -0.13759898 0.0025412242 0.16622941 -0.0029229862 -0.08542457
-0.049687106 -0.027996963 -0.115903154 0.037929066 -0.10095806 -0.026576847 0.0261531 -0.053744763

sequential/conv2d/Conv2D f4 [8, 5, 5, 1]
00000000: 90cc a73d ccd7 2abe 893c 6abe 0b4b a1be
00000010: 77eb 85be 19f0 83be 5a29 d53c 6537 6cbe
00000020: 153b efbc 8bc1 f63d 646e a2bd a964 9b3e
00000030: ed66 0a3f 054e de3e 7e15 053f 6bea 993e
00000040: 7bb5 233e 4593 233e a8f0 31bd 9413 96bc
00000050: e6fc 55be 99ab 4abe 3710 12bf 5296 aabe
00000060: ede9 b3be 4ade 0f3d 1cea a4bb d618 41be
00000070: c90c 383e 245c debb e0d2 953e d2e3 4cbd
00000080: 6fad 78bd 4970 b5be 7fd4 a1be 0751 673e
00000090: c3e3 7f3e 3655 9abd f26b 16be bd4a 11bf
000000a0: d67f e73d a5c8 a93e 483a 15be d92f 973e
000000b0: 43e6 27bf 9cad 8d3c 40d1 ac3e 41dd 953e
000000c0: f522 013f 34af a2be 176d a83d 1d24 133e
000000d0: 6ce0 24bc 40f0 02be 1344 603e cf22 2cbe
000000e0: a1bf 64bd 184b c43d 92d6 2a3e 9dc6 293e
000000f0: bdeb 93bd f8d0 563e 04df 883d 9524 8f3e
00000100: fe40 37be 6df8 6fbe d82b 9d3e 6ad9 8c3e
00000110: 34d2 18be 02dc 3abe c608 2d3e 58df 683e
00000120: aeb4 2dbe 3d23 4dbd a2fc 0dbe a95d 7bbe
00000130: 15f5 c3bd 688c 763d 830c 70be ad6c 53be
00000140: b804 b2be 4c0e 303e 368c b43e 3b99 e7bd
00000150: 14da df3d 258b a1be ed95 debd 989f d43e
00000160: 8d4c 0ebe 48b0 b6be f274 05bf 549a 6f3e
00000170: ecbd af3e f1d4 14bf 4800 68bd 11c6 aa3d
00000180: 2be4 c93e 11b9 c83d 6f04 d1bc a0bb a2bc
00000190: 7b03 f63d 21c8 c7bd ac01 943c 1892 9abe
000001a0: 4ad7 edbe d0da 7bbe 6696 803e 9a6c 1e3f
000001b0: c73d 853e 6e81 c8bd e454 913c fda6 743d
000001c0: 0603 433e 3344 ae3e b05f cf3e 5339 99be
000001d0: 504e 4bbe 8f78 9a3c 204b 8c3e 7e4c 18bd
000001e0: ac14 13be fc9f f5be acd3 cfbe 0a9e 7bbe
000001f0: 8fa0 4a3e 3432 bbbe c070 21be 2ee0 26bf
00000200: 67a0 dbbe c892 73be d3dc 25be 7e5c 04bf
00000210: 40e0 58be b6ce eabb 1c38 c6bc f291 ba3e
00000220: f38d ca3e 05f7 813d d48c d83e e31a e33d
00000230: 5833 e13c 60c6 863e 90b2 973e 0904 e2bc
00000240: 05d0 0d3e a6e7 cbbe c166 ec3e e95c 703e
00000250: 4c7c a13c f638 f7bd 2109 1a3e 31bc 013d
00000260: 8c57 5cbd 5dce 633e 2c15 9f3e 903b c13e
00000270: 807c 383c c0de 063a 8e8e 463e e30d cd3c
00000280: 9fcd 913e 59e2 993e e903 33be 7bfd 533e
00000290: 878b cbbb f6db 03be 4050 dcbd da96 afbd
000002a0: 0848 97be e428 33bd 2ffc 0cbd 8f6f bfbe
000002b0: 1307 82be dd9e f7bd 114e b5be 9993 683e
000002c0: ae0d cfbd d809 19be cb1e 66be 826d a73e
000002d0: a519 c53e 0b5c 2ebe add8 63be 46a4 413d
000002e0: d12b 84bd cc72 d7be 75f6 54bf 9122 0ebf
000002f0: e5ac c0bd c1c6 0c3f 3333 46bf effb 25be
00000300: c4c1 b73d 1c5c 553e bb42 133f 8ddd 02bf
00000310: 28f8 d1bd 6aeb 52be 9903 bb3d 6551 0e3f
0.08193314 -0.16683882 -0.22874655 -0.31502566 -0.26156208 -0.25769117 0.026020695 -0.23068006
-0.029202977 0.12048634 -0.079312116 0.30350235 0.540633 0.434189 0.5198592 0.3006166
0.15987198 0.15974148 -0.0434424 -0.018319882 -0.20897254 -0.19792022 -0.5705599 -0.3331781
-0.3513941 0.0351241 -0.005032791 -0.1885713 0.17973627 -0.0067858864 0.29262447 -0.050021954
-0.060712274 -0.3543723 -0.31607434 0.22589503 0.24989228 -0.07535784 -0.14689615 -0.56754667
0.1130368 0.33160892 -0.14573014 0.29528692 -0.65585726 0.017294697 0.33753395 0.29270366
0.50443965 -0.31774294 0.08223932 0.14369245 -0.010063272 -0.1278696 0.21900968 -0.16810153
-0.055846814 0.095846355 0.16683415 0.16579671 -0.07222698 0.20978153 0.06683162 0.27957597
-0.17895886 -0.2343461 0.30697513 0.27509624 -0.14923936 -0.18247989 0.16897878 0.22741449
-0.16963455 -0.050082434 -0.13865903 -0.24547447 -0.0956823 0.060192496 -0.23442273 -0.20646925
-0.34769225 0.17192954 0.35263222 -0.11308523 0.10930267 -0.3155147 -0.1086844 0.4152801
-0.1389639 -0.35681367 -0.5213157 0.23398715 0.34324586 -0.5813742 -0.056640893 0.083385594
0.3943189 0.098009236 -0.02551481 -0.019864857 0.120123826 -0.097549684 0.018067203 -0.30189586
-0.46453315 -0.24595189 0.25114745 0.6188446 0.26023695 -0.09790312 0.017740674 0.059729565
0.19044122 0.34036407 0.4050269 -0.29926547 -0.19854093 0.018856315 0.27401066 -0.037182324
-0.14363354 -0.4797362 -0.4059118 -0.24572006 0.1978781 -0.3656174 -0.15765667 -0.6518582
-0.42895815 -0.23786461 -0.16197519 -0.5170363 -0.21179295 -0.007165755 -0.024196677 0.36439472
0.39561424 0.06345943 0.42294943 0.110891126 0.027490303 0.26323223 0.2962842 -0.027589815
0.13848884 -0.3982517 0.46172145 0.23472942 0.01971259 -0.12071411 0.15042545 0.031673614
-0.05379443 0.2224669 0.3107084 0.37740755 0.011260152 0.00051448867 0.19390318 0.025031036
0.2847719 0.30055502 -0.1748196 0.20702164 -0.0062117013 -0.12876877 -0.10757494 -0.085736945
-0.29547143 -0.04374017 -0.03442019 -0.373898 -0.25396022 -0.12090848 -0.35411122 0.22712554
-0.10110031 -0.14945161 -0.22472684 0.32700735 0.38496128 -0.17027299 -0.22250624 0.047275804
-0.0645367 -0.4207977 -0.83188564 -0.55521494 -0.09407977 0.54990774 -0.77421874 -0.16209386
0.08972505 0.20835918 0.575237 -0.5111931 -0.1025241 -0.20597616 0.091315456 0.5559295

sequential/conv2d_1/Conv2D f4 [16, 5, 5, 8]
00000000: 87fc 38be 87f1 33be ae64 85bd 3ebf 23be
00000010: 8e4b b63c 8040 09be 4aba 8fbe 3c5b ee3d
00000020: e72f 85be 3774 a8bd a653 94bd 03a0 73be
00000030: 469a 5b3e b453 99bd 4d47 c5bc 9d14 4d3d
00000040: a64d b93d 3bcc 943e e3ac 45bb a069 eebd
00000050: 69b3 ef3c d374 e2bd 8286 e83d 11d2 e5bc
00000060: c480 77bd aff7 ba3e f741 5ebd ffa8 803c
00000070: 7bf4 933e 273e 7b3d 4bba b13d cbe8 98bd
00000080: aef3 b0bd 5671 6e3e 04bb 81be 00ae 97bb
00000090: b1e0 1c3e 9d5e a53b 84e7 1bbd 700f 35be
000000a0: 47cd 46be 6a33 043c 0806 49be 3905 b8bd
000000b0: 3ca7 263d 8984 24be ecec 82be ecdb fb3d
000000c0: b06a 08be ffe9 80be 0896 063d 7669 c9be
000000d0: 47d1 483e 9232 a4bd ec44 3abe 6e69 98be
000000e0: 5b71 64be 723e 003d c80f 83bd a221 22be
000000f0: a89e cf3d bc14 1ebe d7da adbd dcca 87bd
00000100: faa0 08bf 7150 5f3e a0ae 7ebd 76b6 f3bc
00000110: 115e 0d3e 308e a53d 6750 51be df62 153e
00000120: 4109 d8bc c665 e43d c4bd 303e dfc3 723e
00000130: 2523 5fbd cbe8 9e3d 4f8f 7bbe 21a4 abbe
00000140: 74bd c1bc 0fb5 3abe ab80 7abe 4ccc 113e
00000150: 4202 a43c e3a9 c83b 6e34 fabd 4ca6 73be
00000160: c573 c6bd cd36 9ebe 9d92 ed3a be9c 6cbe
00000170: 76fe 9b3c 173f 5f3d 64c6 36be 45c4 babd
00000180: 207d e7bd 303f a3be 4672 2f3d 65bd 493e
00000190: e483 d83b bbb1 093d 99c2 56be 7660 ea3d
000001a0: 85b7 94bd 232f 4b3d 40dc 413e 822d 5c3e
000001b0: 478c fb3b d51b 033d f178 ff3d cf4d 323e
000001c0: 1a77 abbd 0a2f 2b3d f6a4 4e3e 14bd 863e
000001d0: f83f 97be 7616 78be b241 d3bd 6e2a 6f3d
000001e0: d2a6 0b3e 200a a0be 5ef9 4bbe 25bb f13d
000001f0: 0a9a ac3d cb51 5b3e 9b8d 04be 6e85 af3b
00000200: 0aa3 cc3d bba7 c2be 95ee ee3c 0052 d8bd
00000210: a79e 053e f3c3 133e a469 abbd af84 873b
00000220: 155b 0f3e 3ba8 29be 0161 883d bf3a 5c3e
00000230: a046 0dbe 0164 373e 7413 963d 6f40 673e
00000240: 3299 0abe a5fa 46bd 3ad6 813e 7eb8 a73c
00000250: 345d 46be 711e d3bd 7ca6 953e 5dd3 193e
00000260: a818 70be b620 bcbd 57c3 b1bd 4526 87ba
00000270: e708 a2be 65f0 71be b300 00bd 4998 8fbd
00000280: ffa7 eb3e 2794 eabe 2d91 5e3d 7a32 88be
00000290: bff4 373e f124 1a3e 6a56 523e c21a 053c
000002a0: 2cb2 fc3e 3ef2 1fbe 8867 ad3d e256 e5be
000002b0: 74bd 82bd 081d 963d c463 ca3d 4871 00be
000002c0: 3991 e43d 6d48 a8bc 7445 11bd 3147 38be
000002d0: bef8 04be 256e 95bd 1aef 113e 20a1 1d3d
000002e0: 6a16 22be dae2 2fbd b684 15bd def3 65be
000002f0: d36c 4dbe c454 7bbe 0630 e5bc f4d3 82bd
00000300: a542 163e 1c99 3cbe 4c67 1bbe 1c29 7ebd
00000310: 31e9 f9bd e516 79be 4716 88bd b89a 533c
00000320: d9e6 8abe 2643 b2be b577 253e 9ca2 ff3d
00000330: 9142 143c c161 653d cd8a 5fbe 1564 1c3e
00000340: 81ea 4b3d 2af3 4cbd 12a1 e83d a39e af3c
00000350: c176 bdbd b914 ae3d e04b f4bc 7f50 473d
00000360: fc2d ba3d 54fb f83d cf7f 463e 5735 66bd
00000370: 074a 1fbd 7b1e 80be 576f 763e cad5 3abf
00000380: 4d4f 953e e6d6 e7bc d9a7 20be a9dc 9ebe
00000390: 95e1 6a3d 3811 98bd 3a94 fd3d b8e2 98bd
000003a0: 7ad6 843e af6a e33d ea3a aabd f8fb 34bb
000003b0: 3f22 213e bf6f b03d 92b8 bcbd 2c33 88be
000003c0: 640d 6abe 8ef0 78bd 2921 043e 4627 5bbd
000003d0: 5c99 1ebd 694c b1bd bc51 12be 6a67 953d
000003e0: 522c 4ebe a2dc ac3c 192a 4a3e f13e b7bd
000003f0: e65b 80bd 2a1e 63be 970b 63bd 6c43 09bd
-0.18065082 -0.17572604 -0.06513344 -0.15990922 0.022252824 -0.13403511 -0.28071815 0.11638495
-0.2601311 -0.08225291 -0.07242517 -0.23791508 0.2144557 -0.07486668 -0.02408185 0.050068486
0.090480134 0.29062065 -0.0030162863 -0.1164124 0.029260354 -0.11057439 0.1135378 -0.028054269
-0.060425535 0.36517093 -0.054262128 0.015705584 0.2889746 0.06133857 0.08678111 -0.07466277
-0.08640228 0.23285422 -0.25337994 -0.0046288967 0.15320088 0.005046679 -0.038062587 -0.1768167
-0.19414245 0.008068899 -0.19631207 -0.08985371 0.04068683 -0.16066183 -0.25571382 0.12297806
-0.13321948 -0.25178525 0.032857925 -0.39338273 0.19611083 -0.08017458 -0.18190354 -0.29767936
-0.22308867 0.031309552 -0.063994944 -0.15833142 0.10137683 -0.15437597 -0.08489006 -0.06630489
-0.5337063 0.2180803 -0.062178254 -0.02975009 0.13805415 0.08083761 -0.20440827 0.14588498
-0.0263716 0.11152224 0.1725989 0.23707531 -0.054476876 0.077592455 -0.24566387 -0.33523658
-0.023649909 -0.18233131 -0.24463145 0.1423809 0.020020608 0.0061237677 -0.122170314 -0.23793906
-0.0969005 -0.30901185 0.0018125359 -0.23106667 0.019042235 0.054503527 -0.17849118 -0.09119467
-0.113031626 -0.31884146 0.04283359 0.19701155 0.0066075195 0.033616763 -0.2097267 0.1144418
-0.07261566 0.0496055 0.18931675 0.21501735 0.0076766345 0.032008965 0.124742396 0.17412494
-0.08372326 0.041792907 0.20180115 0.2631613 -0.29540992 -0.24227318 -0.10315265 0.058390073
0.13637856 -0.31257725 -0.19919345 0.11803273 0.08427818 0.2141792 -0.12944643 0.005356482
0.09992035 -0.38018593 0.0291665 -0.10562515 0.13048802 0.14430217 -0.08369759 0.00413569
0.13999589 -0.16568081 0.06659127 0.21506785 -0.13796473 0.17909242 0.07327929 0.22583173
-0.13535002 -0.048578877 0.25358754 0.020473715 -0.19371492 -0.103085406 0.2922858 0.15022035
-0.23446906 -0.091859266 -0.08679836 -0.0010311088 -0.31647417 -0.2362686 -0.031250667 -0.07011468
0.46026608 -0.45816156 0.05433767 -0.2660101 0.17964457 0.15053155 0.20540777 0.008124055
0.49354684 -0.15619752 0.08467013 -0.4479285 -0.063837916 0.07329756 0.0988231 -0.12543213
0.111605115 -0.020542348 -0.035466626 -0.17995907 -0.12985513 -0.07296399 0.14251366 0.03848374
-0.15828863 -0.042940952 -0.036503516 -0.22456309 -0.20061044 -0.24544054 -0.027977 -0.06388083
0.1467386 -0.18417782 -0.15176123 -0.062050924 -0.12202681 -0.2432514 -0.06644874 0.012915306
-0.27129248 -0.34816855 0.16158946 0.12482187 0.009049074 0.05600143 -0.21830292 0.15272553
0.049784187 -0.050036587 0.11358847 0.021437949 -0.09251166 0.08500046 -0.029821336 0.04866075
0.09090802 0.12157312 0.19384693 -0.056203213 -0.038888957 -0.25023255 0.2406591 -0.72982466
0.29162064 -0.028300714 -0.15689029 -0.31027725 0.057344038 -0.07425159 0.123817876 -0.07465118
0.25944883 0.11104333 -0.08312018 -0.0027616005 0.1573572 0.08615064 -0.092148915 -0.2660154
-0.2285667 -0.060776286 0.12903275 -0.05350425 -0.038720474 -0.08657152 -0.14288992 0.07295115
-0.20134094 0.0211013 0.19742621 -0.08947552 -0.06267528 -0.22179475 -0.055430975 -0.033511564

sequential/dense/BiasAdd/ReadVariableOp f4 [128]
00000000: 6f17 0f3c 8453 95bc 6f25 a13c e893 a23d
00000010: 3e36 95bb 7c4f f0bb 1a5a 0d3e 9f05 f03c
00000020: 7ca7 8f3d 9d38 b53d 4e77 92bd e81d e5bc
00000030: 0ccd 10bd c428 0d3e 290b 30bd 8640 91bc
00000040: 35d0 853c d157 6b3c fa86 4d3b 9a1a 8e3b
00000050: 2d5d 62bd a8c8 42bd c0c8 0b3d a231 ed3c
00000060: e86c 82bc e9c1 353d f7ba a73c 3e39 ac3c
00000070: 5470 28bd 0c9a a0bc 10e1 003c 8a94 753d
00000080: 5899 17bd da00 03bd 2030 5dbc 0d68 f33c
00000090: aa3e 03bd 979f 1abd 8f8e 3ebd 2ed0 563d
000000a0: efa8 d2bd 0c72 81bd c7a2 553c 2417 103d
000000b0: baa9 0239 05c9 06bd 4930 d5bd 9a8b a8bd
000000c0: e001 34bd c7f6 21bd 256e fc3c 35ab 59bb
000000d0: 32bc 013d 394b 2abd f5ea 66bc ac9f 8c3c
000000e0: 71cd d7bc be12 fe3d a5ea 2f3c 2489 6abc
000000f0: e08e 25bd 4e2b fabc 2f4a 57bd 88cf 58bd
00000100: fca3 853c ccb0 c0bd 5630 ccbd 6574 8dbd
00000110: 1b15 8fbd ec6c 6ebd a5b1 a6bc d12e 81bd
00000120: 9e51 153d 087a b9bd 87d8 bfbd cc40 cfbd
00000130: 45f1 26bd a0fe 59bd 0b81 b0bc 9b68 c0bc
00000140: 1839 24bd 1b5e bfbc 8538 4f3d 4ffe 48bc
00000150: 7045 adbb 635b 6d3c b95d 13bd 75ef 5bbd
00000160: 50a9 693c f101 66bd 54a8 17bc 79d8 91bc
00000170: c1c7 a2bc e647 5c3b 3f1c 87bd 779d 1e3d
00000180: 3f06 aabb 7d1b 59bd 46c5 8cbd 375f e33b
00000190: 0300 a73d 2f35 b83d 9265 d63d 564c 63bd
000001a0: 284a a7bd 1173 b7bc 1138 11bd de61 4e3d
000001b0: 2a24 c63c 3799 343b e672 a7bd a30e 933b
000001c0: 784c 363d 3a25 93bd 4ae6 87bc a260 46bc
000001d0: 6cf7 2a3c 1079 cbbd 2092 4ebd fd0d c53d
000001e0: d883 c1bd 14de afbc 410e abbc e7eb 0abd
000001f0: 3f6b 83bc 977a 85bd 8f69 6bbd 2d9d 9b3c
0.008733614 -0.0182283 0.01967117 0.07938367 -0.0045535853 -0.007333694 0.13803902 0.029299555
0.07014367 0.08848689 -0.07151662 -0.027968362 -0.035351798 0.13785082 -0.042979393 -0.017730962
0.016334632 0.014364199 0.003136097 0.0043366672 -0.05526464 -0.047554642 0.034126997 0.02895433
-0.015921071 0.04437438 0.020474894 0.021023389 -0.04112275 -0.019604705 0.007866159 0.05995611
-0.037011474 -0.031983234 -0.013500243 0.029712701 -0.032042183 -0.037749853 -0.046522673 0.05244463
-0.10286128 -0.06320581 0.013039297 0.03517832 0.00012460994 -0.03290655 -0.104096 -0.08229752
-0.0439471 -0.039541986 0.03081424 -0.003321362 0.031673618 -0.041575644 -0.014094104 0.017165981
-0.02634308 0.124059185 0.010737096 -0.014314923 -0.04041946 -0.030538227 -0.05256098 -0.052932292
0.016313545 -0.09408721 -0.09970157 -0.06906966 -0.069864474 -0.058209345 -0.02034838 -0.06307758
0.03645479 -0.09056479 -0.09367471 -0.10119781 -0.040757436 -0.053221345 -0.021545907 -0.02348738
-0.04009351 -0.023360303 0.05059101 -0.012267663 -0.0052878186 0.01448712 -0.035978053 -0.05369516
0.014261559 -0.056154195 -0.009256441 -0.017803418 -0.01987064 0.003361219 -0.065971844 0.03872439
-0.005188733 -0.05300473 -0.068735644 0.0069388407 0.08154299 0.08994519 0.10468592 -0.05549272
-0.08168441 -0.022393735 -0.03545386 0.050386302 0.024187166 0.0027557143 -0.08176212 0.004487829
0.04450652 -0.07184835 -0.016589303 -0.012108 0.010434967 -0.099352 -0.050432324 0.09621809
-0.09448975 -0.0214682 -0.02088082 -0.03391638 -0.01604235 -0.06517523 -0.057473715 0.018995846

sequential/dense_1/BiasAdd/ReadVariableOp f4 [10]
00000000: 1f48 113d b561 863c 66af f3bd e991 66bb
00000010: 02fa ce3c 5f3b a1bd 58f4 7cbd 9506 383a
00000020: bb1c 1f3e 9b02 90bc
0.03546917 0.016404012 -0.11898689 -0.0035182184 0.025265697 -0.07872652 -0.06175646 0.0007020024
0.15538304 -0.017579367

sequential/dense/MatMul f4 [128, 256]
00000000: 7102 af3d 0cac 003e b93b 773d db6d 8c3e
00000010: 5fef a4be 3e05 d3be 60ba 38be 3369 9ebd
00000020: a36e d73d f26f 7fbe 3820 89be 2922 c0bd
00000030: 4090 47be 4de9 a8bc 10e8 bebd 2097 fb3d
00000040: d582 30be abc0 383e 1f1f 1ebe f38b febd
00000050: 48c4 72be 324b c6be 7753 073d c3d8 263e
00000060: 609a 9abc f7eb 66be e99a 21be 20a7 8e3a
00000070: 3283 953d 7b74 1abe 520c 61be 52b2 c1bd
00000080: 3760 52bd bfed d8bc 3cd8 e23d 1125 b7be
00000090: e8cd dd3d 0a5f 1c3e e791 59bd 278d f2bc
000000a0: a024 c43c b75b a9be 2f24 983d ab21 90be
000000b0: bd02 98bd 27b4 aebd e8ae 71bd 8a9d 9bbe
000000c0: f26a a83d c249 97be 689b 78bc 8f83 08bd
000000d0: 140d 2b3d 54a8 8d3e 7f73 423e 7759 ebbd
000000e0: 54fe cb3d 3560 9a3c f72f 163d 300f c1bd
000000f0: 3940 153e 7000 86be 9c45 07be 849f 323e
00000100: 2ec1 07be 1350 d13c 3fcf 67bb d24f 9abe
00000110: 5fca 0bbe 4a91 6ebe c5cb 07be 3fb5 23bc
00000120: e05e 933d 3003 2abe 205f f8bd c27f c53c
00000130: a28e 4b3d 3224 353c 9d34 a3bd f540 8f3e
00000140: e0e0 bcbe b993 96bd cafe 29be d5fd 2bbe
00000150: 200b bdbd 5d21 29be c9bb 053e ddf7 483e
00000160: e82b 3c3d c2de e7bc 5e3a 8cbc 58ad 97be
00000170: 1a2b a93d d1c4 733e 5b62 03bd dbc2 35be
00000180: b77a d1bc 0ce6 a5be f3b2 0a3e 3fa0 69be
00000190: 7ffc 383e b987 043e d7c5 e43d c709 e53b
000001a0: 00ab 11bd dbab 823e d3a8 213d 5469 91bd
000001b0: aa52 35bd 9967 b93c 0a56 99bd ea7a 36be
000001c0: 2ec9 8b3d 2c3c c8be 9da4 893d b621 ebbc
000001d0: acd0 043d 6b88 823e 2c04 12be b96d 08be
000001e0: 1ac9 8cbc 56bd fd3d f482 3d3b cdb5 88be
000001f0: c7a9 b83d 7ed4 91be 5a48 89bd 4716 583e
00000200: fff0 13be 653e 113d 71b0 833c 0777 34be
00000210: e162 913d 83ef 47be e335 17be 8937 9f3e
00000220: b06b 08bd 8a91 e2bd b207 4dbd 615b 2fbe
00000230: b945 a8bd 982d 16bd 52ac 81be 1dcd 2e3e
00000240: 1b54 17bd cc00 d13d 659b a5bd 956a 79bd
00000250: 18ce 1d3c 396f 80be 13a9 c83d 96bc 0f3e
00000260: a0a4 45bc 502f 863b eb7a 01be e8da 07be
00000270: 0aa9 76bd 0844 193e a9d0 b4bc 1ba7 94bd
00000280: a525 e73d 412d 80bd 13c4 ae3c 4bf1 133e
00000290: 4709 803e ec4f 79be b3c2 bebd 99f1 f73d
000002a0: 9024 d83c 26c0 24be 18b5 2d3d 73cd 55bd
000002b0: 2216 1bbe 59f1 d5bb 3562 663e 0c33 32be
000002c0: ab0c 273e 3bcf 01bd b086 a6bc 7791 8dbc
000002d0: b9c0 c1bd 13cc 293e 34e2 babe bdd4 77be
000002e0: 3a25 3a3d 857d 443e 2f67 ae3c d643 4d3d
000002f0: ccce bcbc 8eed 933d f5cc e5bd ee3e 323e
00000300: 73a6 1d3e 8410 473d 9fac d63d 9986 613b
00000310: eb7f c13d 5870 87be d629 213e d6c4 cb3c
00000320: 943d d73d 7021 bc3d afef 3fbd cb69 0cbe
00000330: 316e 953d b908 c33d c355 ea3d 083c b03d
00000340: c83b efbd 1ac8 5ebd 9599 913d f14a 273e
00000350: 1975 b63d d8b2 003d 3caa 53bc fb17 023e
00000360: 44eb 85bd b24c c4bb 0849 ebbc 274a a4bd
00000370: d171 c7bd ec7c be3d 9170 5c3e 0a6e d23c
00000380: ba09 33be 0e90 3cbe 3580 b73d 3f86 e13d
00000390: 4cee 20bc 37c8 6f3d 17f5 bf3c 2736 efbd
000003a0: 6404 af3d 1f40 2e3c d16f 0b3d 5a9d 3fbc
000003b0: 4f42 743d 9f26 173e 2253 5cbd b604 bd3d
000003c0: f3e3 0ebe 70ef 0c3d b353 51bd 0844 96bd
000003d0: 43ac a53d b958 9fbd db7f 81bd 9b38 90bd
000003e0: 8094 193b c487 19be 34c2 813e fe73 893d
000003f0: 92f0 893c 6350 5a3e aa44 e13d 0d3c 06bd
0.085453875 0.1256563 0.06035969 0.27427563 -0.32213876 -0.41214937 -0.18039846 -0.07734909
0.10519149 -0.24945047 -0.26782393 -0.093815155 -0.19488621 -0.020619059 -0.09321606 0.12284684
-0.17237408 0.18042247 -0.1544156 -0.12429037 -0.23707688 -0.38729244 0.033038583 0.16293626
-0.01887244 -0.22550951 -0.1578175 0.0010883547 0.07300414 -0.15083496 -0.21977356 -0.0945784
-0.05136129 -0.026480554 0.110764 -0.35770467 0.10830289 0.1527063 -0.05311766 -0.029608322
0.023943245 -0.33077785 0.074287765 -0.28150687 -0.07422397 -0.08530455 -0.059004694 -0.3039363
0.08223523 -0.2954846 -0.0151737705 -0.03332859 0.04176052 0.27667487 0.18989371 -0.114916734
0.099606186 0.018844703 0.036666837 -0.09426725 0.1457528 -0.2617221 -0.13210148 0.17443663
-0.13257286 0.025550878 -0.003537133 -0.30139023 -0.13651417 -0.23297611 -0.13261326 -0.009991943
0.0719583 -0.16602778 -0.12127519 0.024108771 0.049696572 0.011055993 -0.079690196 0.27979246
-0.36890316 -0.073523946 -0.166011 -0.16796048 -0.092306376 -0.16516633 0.13059916 0.19625802
0.04594031 -0.028304461 -0.017117675 -0.29624438 0.08260174 0.23805548 -0.03207622 -0.17750113
-0.02557121 -0.32402074 0.13544826 -0.22815035 0.1806507 0.12942399 0.111705475 0.006989691
-0.03556347 0.2552174 0.039467644 -0.07100168 -0.044268288 0.022632407 -0.07487114 -0.17820325
0.06825481 -0.39108407 0.067208506 -0.028702598 0.032425568 0.25494704 -0.14259404 -0.13323106
-0.017185736 0.123896286 0.0028917165 -0.26701203 0.090167575 -0.2848243 -0.06703253 0.21102248
-0.14447401 0.035459895 0.016075345 -0.1762353 0.07098938 -0.1952496 -0.1476665 0.31097057
-0.033305824 -0.110629156 -0.050056167 -0.17124702 -0.082164235 -0.036664575 -0.25326782 0.17070432
-0.036945444 0.1020523 -0.0808628 -0.06089266 0.009631656 -0.25084856 0.09797873 0.14036784
-0.012063175 0.0040949956 -0.12644546 -0.132671 -0.060219802 0.14967358 -0.022072153 -0.07258435
0.11286477 -0.062586315 0.02133373 0.14447515 0.25007078 -0.24346894 -0.0931448 0.12106628
0.026384622 -0.16088924 0.042409033 -0.052197885 -0.15145162 -0.006529015 0.224984 -0.17402285
0.16313426 -0.03169177 -0.020327896 -0.017281277 -0.09460587 0.16581754 -0.36500704 -0.24202247
0.04544566 0.19188507 0.021289436 0.05011352 -0.023047827 0.07223044 -0.11220733 0.17406818
0.15395527 0.048599735 0.104821436 0.0034412502 0.094482265 -0.264529 0.15738615 0.024874132
0.10509792 0.09186065 -0.04685944 -0.13712232 0.07296408 0.09523148 0.11442139 0.086052
-0.11681324 -0.05439005 0.071093716 0.16337182 0.08909053 0.03142056 -0.012919005 0.1270446
-0.06539014 -0.005990588 -0.028721347 -0.08021956 -0.09738506 0.09301171 0.21527316 0.025687236
-0.17484179 -0.18414328 0.089600004 0.110119335 -0.009822439 0.05854055 0.023432298 -0.116802506
0.08545759 0.010635405 0.034042183 -0.01169523 0.05963355 0.14760827 -0.05379022 0.09229414
-0.13954143 0.034408033 -0.051105212 -0.07337195 0.08089497 -0.077805944 -0.063232146 -0.07042047
0.002343446 -0.14993197 0.25343478 0.06711577 0.016838346 0.21319728 0.10999425 -0.032772113

sequential/dense_1/MatMul f4 [10, 128]
00000000: 3463 18be 00d8 133e 6217 1b3e b3d7 423e
00000010: 9cc2 21bc 8171 323d ab09 513e aed3 18bf
00000020: c155 543e 0cf8 f1bd e367 323e d5e8 b7be
00000030: 3bdc 62be d56e 2a3c 3a0c 933c bf12 8cbe
00000040: 684b c7bd f5aa d23d e27c 9fbd 965f f73d
00000050: e559 0cbe 6568 383e 0b64 6d3d c05a 1c3e
00000060: 0446 a03e 5c5d 72be dd40 18be c79f 323e
00000070: aac3 56ba 9bde 853e cb71 6abe bc97 903e
00000080: a5ba 943d 3ef8 c7bd f566 3bbc 9b78 19bd
00000090: 98a9 01bf 2bdd 293e e800 b0be a2d0 db3d
000000a0: 9d41 b3be bc72 0f3e 3582 003e eeb1 673e
000000b0: 9b76 db3d 9017 b33d 24e3 96bd 8cdf b0be
000000c0: 2fcf 72be a911 10bd 0adb f73d 1b32 debe
000000d0: a131 e23d 1e1e dabe 84ee 403e b878 c93d
000000e0: 5ec2 403d 0fc7 4bbe 5c3e c7be 0f03 e7be
000000f0: ad31 7ebd 18f8 283d c16b c0be 17ab 433e
00000100: ddad e3be 113f 9ebe 5c3e 69be 197b a5be
00000110: 94b6 2ebf 60c0 233b 55b7 85ba 9cb8 7e3d
00000120: ea2a 9fbd 45f6 95be fd83 2f3e c59d e8be
00000130: f2d0 8ebd d0e2 6c3d 5047 553e 9d42 0ebf
00000140: d676 2f3e 75e9 863d 1f74 d73d b663 01be
00000150: da79 6bbe 4024 62be 21ff 983d 379c 84be
00000160: c67c 8c3e e103 a73b 0536 4cbe 8e0e 033e
00000170: 3c73 9abd a2b9 debe ea7d 2cbe d2e7 9e3e
00000180: 6325 ab3d c08d fe3c 980f c8bd efb7 47bd
00000190: 28e5 043e 77fd 9fbe 7cd9 0e3d b95e 30bd
000001a0: 592d e13d b128 0d3e c33a fa3c 5b7d 51be
000001b0: d8c3 003d e5f9 f13d 8eab 6dbd 2d47 af3d
000001c0: ab89 d5be 1f64 2fbe ce96 26be e8ca fb3d
000001d0: 26f2 0c3d 0378 8d3e f917 a9be a066 3c3e
000001e0: bdc3 54bd f77c bebd 41a8 803d d897 94be
000001f0: abd4 d3be 13bf f5bd 27e1 a63d 03fe 7cbe
00000200: 723e 30be 9523 b8be 4568 68be bd5c 133e
00000210: c49b 5abe ffd8 09be dc71 c73d 2d49 cf3e
00000220: a9ca 363e 095b c83d 4705 be3e 9767 9e3d
00000230: 0698 bbbe dde3 8d3e febf 7dbc ab10 523e
00000240: 8194 4a3d 4bb3 e83d ab4b 64be 477b d23c
00000250: 14cb 67be 294d 153e af8d 313e a97d 3ebe
00000260: cfac 3a3e e03c 803d d43f 253e dd22 05be
00000270: 6c3f 0a3e 1424 a03d 22ca babe cd85 b2be
00000280: 9e2b 03bf 48b7 043c 5bfd 64bd c6db be3d
00000290: f91b 28be 3131 05be 06f8 c93d 1c8d 1f3e
000002a0: 8766 eabc fa94 88be b7fc edbc a10f 0abe
000002b0: d766 bfbe fcce 74be 7169 a2be c0aa a6be
000002c0: c74f 843d 57d1 843d 3da1 6d3d 31e6 073e
000002d0: d1c8 5e3d 8cba 27be cf89 8fbe 3350 46be
000002e0: 8aa4 92be b5cd d23e 685d 563e 3ede c1bc
000002f0: bec4 2fbe 44fa 43be a075 58be fe68 b9be
00000300: d6d7 00be 0c00 243e 83dc 42bd bc95 3cbe
00000310: c73c aa3d 1f4d 05be f889 fb3d 3f31 9fbe
00000320: cab5 593e 125a 09be 4a64 e4bc 2703 abbe
00000330: 16fd e0be dd38 543e 95df b43d ebc0 713d
00000340: 519e 99bd cfd3 02bc 2b95 afbe 95e3 f53c
00000350: 7997 f63d e3ef 7d3e b5b4 3abe 888e efbd
00000360: 30ca 84bd 44a9 0bbf 248b d0bd 0008 1ebb
00000370: fda7 0f3d a3ae 69bb 9bb8 a2bd 5414 05be
00000380: 7aad 34be c5b4 95be 1beb 093c 9943 d9bd
00000390: e0ed 9e3d 0a1a 253e fed8 3d3e dcb7 13be
000003a0: fb4d cdbe c307 babe 6cc0 503e eb0d 4c3e
000003b0: 5f1d 253e 524a a6bd fdaf 97bd a29c 8b3d
000003c0: 0184 e83d 1d30 7bbe 039e a0be ba25 77be
000003d0: 5c90 4d3d 1b41 4bbd 05fb bd3c dc5c 5a3e
000003e0: 9378 aabe cb52 a4be c378 fabe a985 1abe
000003f0: 097a 27be a8b5 cebe 098e b3bd f9e3 ef3d
-0.14881593 0.14437866 0.15145639 0.19027595 -0.009873059 0.043565277 0.20413844 -0.59698
0.20735838 -0.11814889 0.17422442 -0.35919824 -0.22154324 0.010402401 0.017950166 -0.27358052
-0.097311795 0.10286514 -0.077874914 0.120787784 -0.13706167 0.18008573 0.057956737 0.15268993
0.31303418 -0.23668426 -0.14868493 0.17443763 -0.00081926084 0.26146397 -0.22894971 0.28240764
0.07262162 -0.09764145 -0.011438121 -0.037468534 -0.50649405 0.16588275 -0.3437569 0.10733153
-0.35010996 0.14008611 0.1254967 0.22626469 0.107159816 0.087447286 -0.073675424 -0.34545553
-0.23711847 -0.035173092 0.12102325 -0.43397602 0.11044622 -0.42601103 0.18840986 0.098374784
0.047060363 -0.19900154 -0.38914764 -0.4511952 -0.062059093 0.041252226 -0.3758221 0.19108234
-0.44468585 -0.3090749 -0.22777694 -0.3232048 -0.6824734 0.002498649 -0.0010201732 0.062187776
-0.07771857 -0.2928945 0.17140193 -0.4543287 -0.06973447 0.057833493 0.20827985 -0.55570394
0.17135176 0.06587497 0.10520195 -0.12635693 -0.22995701 -0.22084141 0.07470537 -0.25900432
0.27438945 0.005096898 -0.19942482 0.12798521 -0.075415105 -0.43501002 -0.16844907 0.3103624
0.0835674 0.031073451 -0.09768599 -0.048759397 0.12978041 -0.31248066 0.034875378 -0.043059085
0.109949775 0.13785054 0.030545598 -0.20457976 0.03143677 0.11815242 -0.058024935 0.085584976
-0.41706595 -0.17128037 -0.16268465 0.12294561 0.03441062 0.27630624 -0.33026102 0.18398523
-0.051944483 -0.09301179 0.06282092 -0.29022098 -0.4137319 -0.11999335 0.08148413 -0.24706273
-0.17211321 -0.35964647 -0.22696026 0.14390846 -0.21348482 -0.13461684 0.09738514 0.40485516
0.17850746 0.097829886 0.371134 0.07734602 -0.36639422 0.27712908 -0.015487669 0.20514171
0.04945803 0.113623224 -0.2229449 0.025693549 -0.22636062 0.14580216 0.17339204 -0.18602623
0.18229984 0.06261611 0.1613763 -0.1300158 0.13500756 0.07819381 -0.3648234 -0.34867707
-0.5123843 0.008100338 -0.05590568 0.09319262 -0.1641692 -0.13007046 0.0986176 0.15581173
-0.028613342 -0.2667616 -0.029051168 -0.13482524 -0.37383148 -0.23907083 -0.3172107 -0.32552147
0.06460529 0.06485241 0.058015097 0.13271405 0.054390732 -0.16379756 -0.28034827 -0.19366531
-0.28641158 0.41172567 0.20934069 -0.023665544 -0.17164895 -0.19138438 -0.2113862 -0.36212915
-0.12582335 0.16015643 -0.047573578 -0.18416494 0.083123736 -0.130177 0.12282175 -0.3109226
0.21260753 -0.13413265 -0.027879853 -0.33400843 -0.4394309 0.20724817 0.088317074 0.05902187
-0.075008996 -0.007985069 -0.34293494 0.030015746 0.1204061 0.24798541 -0.18232997 -0.116971076
-0.06483877 -0.54555154 -0.10182789 -0.0024113655 0.035072315 -0.003565707 -0.07945367 -0.12996036
-0.17644301 -0.2923948 0.00841787 -0.10608596 0.07760215 0.16123214 0.18539807 -0.14425606
-0.40098557 -0.36334047 0.20385903 0.19927184 0.16124485 -0.08119644 -0.07406614 0.06816985
0.11353303 -0.24530073 -0.31370553 -0.24135485 0.0501865 -0.049622636 0.023190985 0.21324486
-0.33295116 -0.32094416 -0.4892026 -0.1509005 -0.16355146 -0.40372968 -0.087673254 0.11713404
